module {
  func.func @main_graph(%arg0: !torch.vtensor<[?,4],f32>) -> !torch.vtensor<[?,3],f32> attributes {torch.onnx_meta.ir_version = 8 : si64, torch.onnx_meta.opset_version = 17 : si64, torch.onnx_meta.producer_name = "pytorch", torch.onnx_meta.producer_version = "2.6.0"} {
    %0 = torch.operator "onnx.Constant"() {torch.onnx.value = dense_resource<_fc1.weight> : tensor<8x4xf32>} : () -> !torch.vtensor<[8,4],f32> 
    %1 = torch.operator "onnx.Constant"() {torch.onnx.value = dense_resource<_fc1.bias> : tensor<8xf32>} : () -> !torch.vtensor<[8],f32> 
    %2 = torch.operator "onnx.Constant"() {torch.onnx.value = dense_resource<_fc2.weight> : tensor<16x8xf32>} : () -> !torch.vtensor<[16,8],f32> 
    %3 = torch.operator "onnx.Constant"() {torch.onnx.value = dense_resource<_fc2.bias> : tensor<16xf32>} : () -> !torch.vtensor<[16],f32> 
    %4 = torch.operator "onnx.Constant"() {torch.onnx.value = dense_resource<_fc3.weight> : tensor<3x16xf32>} : () -> !torch.vtensor<[3,16],f32> 
    %5 = torch.operator "onnx.Constant"() {torch.onnx.value = dense_resource<_fc3.bias> : tensor<3xf32>} : () -> !torch.vtensor<[3],f32> 
    %none = torch.constant.none
    %6 = torch.operator "onnx.Gemm"(%arg0, %0, %1) {torch.onnx.alpha = 1.000000e+00 : f32, torch.onnx.beta = 1.000000e+00 : f32, torch.onnx.transB = 1 : si64} : (!torch.vtensor<[?,4],f32>, !torch.vtensor<[8,4],f32>, !torch.vtensor<[8],f32>) -> !torch.vtensor<[?,8],f32> 
    %7 = torch.operator "onnx.Gemm"(%6, %2, %3) {torch.onnx.alpha = 1.000000e+00 : f32, torch.onnx.beta = 1.000000e+00 : f32, torch.onnx.transB = 1 : si64} : (!torch.vtensor<[?,8],f32>, !torch.vtensor<[16,8],f32>, !torch.vtensor<[16],f32>) -> !torch.vtensor<[?,16],f32> 
    %8 = torch.operator "onnx.Relu"(%7) : (!torch.vtensor<[?,16],f32>) -> !torch.vtensor<[?,16],f32> 
    %9 = torch.operator "onnx.Gemm"(%8, %4, %5) {torch.onnx.alpha = 1.000000e+00 : f32, torch.onnx.beta = 1.000000e+00 : f32, torch.onnx.transB = 1 : si64} : (!torch.vtensor<[?,16],f32>, !torch.vtensor<[3,16],f32>, !torch.vtensor<[3],f32>) -> !torch.vtensor<[?,3],f32> 
    %10 = torch.operator "onnx.Softmax"(%9) {torch.onnx.axis = 1 : si64} : (!torch.vtensor<[?,3],f32>) -> !torch.vtensor<[?,3],f32> 
    return %10 : !torch.vtensor<[?,3],f32>
  }
}

{-#
  dialect_resources: {
    builtin: {
      _fc1.weight: "…",
      _fc1.bias: "…",
      _fc2.weight: "…",
      _fc2.bias: "…",
      _fc3.weight: "…",
      _fc3.bias: "0x08000000CCEA403E9F19693E5C123D3D"
    }
  }
#-}

